…
e2a\u200b\u6a21\u578b\u200b\u7ed3\u6784\u200b\u6216\u8005\u200b\u6267\u884c\u200b\u5176\u4ed6\u200b\u521d\u59cb\u5316\u200b\u64cd\u4f5c\u200b.</p> \u200b\u8f93\u5165\u200b<pre><code>model = models.vgg16() # we do not specify ``weights``, i.e. create untrained model\nmodel.load_state_dict(torch.load('model_weights.pth', weights_only=True))\nmodel.eval() # \u200b\u5c06\u200b\u6a21\u578b\u200b\u8bbe\u7f6e\u200b\u4e3a\u200b\u5904\u4e8e\u200b\u8bc4\u4f30\u200b\u6a21\u5f0f\u200b, \u200b\u9632\u6b62\u200bdropout\n</code></pre> \u200b\u8f93\u51fa\u200b<pre><code>VGG(\n  (features): Sequential(\n    (0): Conv2d(3, 64, kernel_size=(3, 3), stride=(1, 1), padding=(1, 1))\n    (1): ReLU(inplace=True)\n    (2): Conv2d(64, 64, kernel_size=(3, 3), stride=(1, 1), padding=(1, 1))\n    (3): ReLU(inplace=True)\n    (4): MaxPool2d(kernel_size=2, stride=2, padding=0, dilation=1, ceil_mode=False)\n    (5): Conv2d(64, 128, kernel_size=(3, 3), stride=(1, 1), padding=(1, 1))\n    (6): ReLU(inplace=True)\n    (7): Conv2d(128, 128, kernel_size=(3, 3), stride=(1, 1), padding=(1, 1))\n    (8): ReLU(inplace=True)\n    (9): MaxPool2d(kernel_size=2, stride=2, padding=0, dilation=1, ceil_mode=False)\n    (10): Conv2d(128, 256, kernel_size=(3, 3), stride=(1, 1), padding=(1, 1))\n    (11): ReLU(inplace=True)\n    (12): Conv2d(256, 256, kernel_size=(3, 3), stride=(1, 1), padding=(1, 1))\n    (13): ReLU(inplace=True)\n    (14): Conv2d(256, 256, kernel_size=(3, 3), stride=(1, 1), padding=(1, 1))\n    (15): ReLU(inplace=True)\n    (16): MaxPool2d(kernel_size=2, stride=2, padding=0, dilation=1, ceil_mode=False)\n    (17): Conv2d(256, 512, kernel_size=(3, 3), stride=(1, 1), padding=(1, 1))\n    (18): ReLU(inplace=True)\n    (19): Conv2d(512, 512, kernel_size=(3, 3), stride=(1, 1), padding=(1, 1))\n    (20): ReLU(inplace=True)\n    (21): Conv2d(512, 512, kernel_size=(3, 3), stride=(1, 1), padding=(1, 1))\n    (22): ReLU(inplace=True)\n    (23): MaxPool2d(kernel_size=2, stride=2, padding=0, dilation=1, ceil_mode=False)\n    (24): Conv2d(512, 512, kernel_size=(3, 3), stride=(1, 1), padding=(1, 1))\n    (25): ReLU(inplace=True)\n    (26): Conv2d(512, 512, kernel_size=(3, 3), stride=(1, 1), padding=(1, 1))\n    (27): ReLU(inplace=True)\n    (28): Conv2d(512, 512, kernel_size=(3, 3), stride=(1, 1), padding=(1, 1))\n    (29): ReLU(inplace=True)\n    (30): MaxPool2d(kernel_size=2, stride=2, padding=0, dilation=1, ceil_mode=False)\n  )\n  (avgpool): AdaptiveAvgPool2d(output_size=(7, 7))\n  (classifier): Sequential(\n    (0): Linear(in_features=25088, out_features=4096, bias=True)\n    (1): ReLU(inplace=True)\n    (2): Dropout(p=0.5, inplace=False)\n    (3): Linear(in_features=4096, out_features=4096, bias=True)\n    (4): ReLU(inplace=True)\n    (5): Dropout(p=0.5, inplace=False)\n    (6): Linear(in_features=4096, out_features=1000, bias=True)\n  )\n)\n</code></pre>"},{"location":"code/pytorch/#_29","title":"\u4fdd\u5b58\u200b/\u200b\u52a0\u8f7d\u200b\u6a21\u578b","text":"<p>\u200b\u4ece\u200b\u4e0a\u9762\u200b\u770b\u51fa\u200b, \u200b\u5f53\u200b\u6211\u4eec\u200b\u52a0\u8f7d\u200b\u6a21\u578b\u200b\u53c2\u6570\u200b\u7684\u200b\u65f6\u5019\u200b, \u200b\u5b9e\u9645\u4e0a\u200b\u6211\u4e
…
